results/autoencoder.pt (torch, 550617 bytes, 14 tensors)

encoder.0.weight f4 [16, 300, 3, 3]
0	0x3c017594	0.007901568
1	0x3cd60a61	0.026127996
2	0x3bd9f43f	0.006651431
3	0x3c401bb5	0.011725356
4	0x3d006dab	0.031354588
5	0x3c30d87a	0.0107938
6	0x3d09acf4	0.033612207
7	0x3cffab84	0.031209715
8	0x3cea59ce	0.028607275
9	0x3c52fd96	0.012877842
10	0x3d1c10f7	0.038102116
11	0x3ca4fcab	0.020140013
12	0x3cd5dce2	0.026106302
13	0x3c768502	0.01504636
14	0x3cf1d444	0.029520161
15	0x3d06c87a	0.032906033
16	0x3cd104c1	0.025514962
17	0x3ce98c71	0.02850935
18	0x3ce0790b	0.027401468
19	0xbc881519	-0.016611623
20	0x3c71253d	0.014718351
21	0x3c6ad41c	0.014332797
22	0x3bd87de5	0.0066068047
23	0x3bfe8673	0.0077674924
24	0xbb34fb7d	-0.002761572
25	0x3c2d01c2	0.010559501
26	0xbc3a873e	-0.011384783
27	0x3cdb5edf	0.026778637
28	0x3d0e13d3	0.034686875
29	0x3c171cc0	0.009223163
30	0x3d137b48	0.036006242
31	0x3d055b7b	0.032557946
32	0x3c36cc9e	0.011157183
33	0x3d059e98	0.03262195
34	0x3d2d90aa	0.04237429
35	0x3d09cfb0	0.03364533
36	0x3cfe930c	0.031075977
37	0x3d112336	0.03543397
38	0x3d16e3a2	0.03683818
39	0x3d269ee5	0.040678877
40	0x3d3258e9	0.043541823
41	0x3d4c1772	0.049827047
42	0x3d4620d9	0.04837117
43	0x3d5747e6	0.052558802
44	0x3d305e8c	0.043058917
45	0x3c5a046a	0.013306716
46	0xbc8642f9	-0.016389357
47	0x3b2d296f	0.0026422401
48	0xbb6e97c8	-0.0036406387
49	0xbb078437	-0.0020678171
50	0xbc0e60d6	-0.00869008
51	0x3c891884	0.016735323
52	0xbc845648	-0.016154423
53	0xbba25829	-0.004954357
54	0x3c9fc152	0.019501362
55	0x3cce6973	0.025196766
56	0x3b5d4efe	0.0033769007
57	0x3d1f3b36	0.038874827
58	0x3d0858d0	0.033287823
59	0x3ce05031	0.027381988
60	0x3d3b4596	0.04572066
61	0x3c465e41	0.012107433
62	0x3d0884c3	0.033329736
63	0x3d2b6826	0.04184737
64	0x3d026103	0.0318308
65	0x3d2c80cf	0.04211503
66	0x3cc3bb22	0.023892943
67	0x3d40ed54	0.047101334
68	0x3d453626	0.048147343
69	0x3d34b81f	0.044120904
70	0x3d4d100f	0.050064143
71	0x3cd02f6b	0.025413236
72	0xbb3394bc	-0.0027401885
73	0xbb44d215	-0.0030032445
74	0xbcb89352	-0.022531185
75	0xbc2a433b	-0.010392006
76	0x3c905c6d	0.017622197
77	0xbca09e7f	-0.019606827
78	0xbc9bcd27	-0.019018723
79	0xbc06c0dd	-0.008224693
80	0xbc78bf3b	-0.015182312
81	0x3cb3c72c	0.021945558
82	0x3cab757b	0.020930042
83	0x3bc50167	0.00601213
84	0x3d2f69b7	0.042825427
85	0x3d11875a	0.035529472
86	0x3c2ce119	0.010551714
87	0x3d1c0cf9	0.03809831
88	0x3cd8b8d8	0.026455328
89	0x3c9108ac	0.01770433
90	0x3cdb83b5	0.026796201
91	0x3d27e738	0.04099199
92	0x3d08c010	0.03338629
93	0x3d23d9ec	0.04000275
94	0x3c62285c	0.013803568
95	0x3d351fee	0.044219904
96	0x3cd3fbef	0.025876967
97	0x3c873967	0.016506864
98	0x3d19bf94	0.03753622
99	0x3cb1e616	0.021716159
100	0xbbb7b213	-0.005605945
101	0xbc4112f4	-0.011784304
102	0xbc8aca1d	-0.016942078
103	0xbcb53e2d	-0.022124374
104	0x387b056d	5.9848117e-05
105	0xbba88d42	-0.0051437924
106	0x387149cd	5.752761e-05
107	0xbc46c899	-0.012132787
108	0x3c1c452f	0.009537979
109	0x3d267f8c	0.040648982
110	0x3cf70326	0.030152868
111	0x3cb31471	0.021860333
112	0x3cedec60	0.029043376
113	0x3d23c4a1	0.03998244
114	0x3ceac5cd	0.028658772
115	0x3d0d8574	0.0345511
116	0x3c8d52d7	0.017251415
117	0x3c20d14c	0.009815525
118	0x3d3d3089	0.046188865
119	0x3d1c0b3b	0.038096648
120	0x3cae7d7f	0.021300076
121	0x3ca3fefe	0.02001905
122	0x3c84a4e5	0.01619191
123	0x3c50eaee	0.012751324
124	0x3d226e35	0.039655883
125	0x3cf35c8b	0.029707214
126	0x3cc043e9	0.023469882
127	0xbcb9fe94	-0.0227044
128	0x3bf5b8fc	0.0074988585
129	0xba9d599b	-0.0012004854
130	0x3c4aaaf5	0.012369861
131	0x3c5c9dcd	0.013465357
132	0xbc7fd648	-0.0156150535
133	0xbc77021a	-0.015076185
134	0x3b990955	0.004670302
135	0x3c6cc39d	0.014450935
136	0x3cfee85e	0.03111666
137	0x3bce9ab9	0.0063050655
138	0x3d05d301	0.032671932
139	0x3d15ebc3	0.036601793
140	0x3bc99abb	0.0061524785
141	0x3c9fa6a3	0.019488638
142	0x3ba63e12	0.0050733173
143	0x3ce5dbb9	0.028058873
144	0x3c525c93	0.012839454
145	0x3c8a1a18	0.016858146
146	0x3d40b363	0.047046077
147	0x3ca68742	0.020328168
148	0x3d0322e2	0.03201569
149	0x3c798a46	0.015230721
150	0x3d2ac724	0.04169382
151	0x3d428dff	0.0474987
152	0x3d233238	0.039842814
153	0x3b662a1c	0.0035120314
154	0xbc0e79cb	-0.00869603
155	0xbc0f99ea	-0.008764723
156	0x3c357754	0.011075813
157	0xbc33e079	-0.010978811
158	0xbc71e54e	-0.014764143
159	0x3b49c9d3	0.0030790463
160	0xbc87f76b	-0.01659747
161	0xbca1d375	-0.01975415
162	0x3d306673	0.043066453
163	0x3d123c21	0.035701875
164	0x3d23982a	0.039940037
165	0x3d2cdd49	0.04220322
166	0x3c74255d	0.014901486
167	0x3d18e0e7	0.03732386
168	0x3ca01c08	0.019544616
169	0x3d0beff2	0.034164377
170	0x3cdffe40	0.027342916
171	0x3d055076	0.032547437
172	0x3d1fec20	0.039043546
173	0x3d2d1a51	0.042261425
174	0x3d24ab1e	0.040202253
175	0x3d043087	0.03227284
176	0x3d06f4e7	0.0329484
177	0x3cac5ff0	0.02104184
178	0x3d563163	0.052293193
179	0x3cd2e4fb	0.025743952
180	0x3bd5dd21	0.0065266048
181	0xbc08d118	-0.008350633
182	0x3c193528	0.009351052
183	0x3b5cd8c6	0.0033698543
184	0xbb13f705	-0.0022577655
185	0xbbd916bc	-0.0066250246
186	0xbc48c0e8	-0.012253024
187	0x3b4ee80f	0.0031571423
188	0x3bd5cc05	0.006524565
189	0x3c268f85	0.010166054
190	0x3d09e450	0.033665
191	0x3d01117a	0.031510808
192	0x3ca238f6	0.019802552
193	0x3bed3b36	0.0072397245
194	0x3c7563fb	0.0149774505
195	0x3d2138c9	0.039360795
196	0x3caef7b4	0.021358348
197	0x3d284623	0.041082513
198	0x3c6617c9	0.014043757
199	0x3c77c2de	0.015122144
200	0x3d354cf0	0.044262826
201	0x3cb4bfa7	0.022064043
202	0x3d185452	0.03718979
203	0x3d164258	0.036684364
204	0x3d4ec93c	0.05048488
205	0x3d4d4194	0.05011137
206	0x3c98bee4	0.018645711
207	0x3c20d36a	0.00981603
208	0x3bd01422	0.0063500563
209	0xbc7915ac	-0.015202921
210	0x3c5971b9	0.0132717425
211	0xbcb84d29	-0.02249773
212	0xbc538879	-0.012910956
213	0xbb937a96	-0.0045006974
214	0xbce0123a	-0.027352441
215	0xbcb9b937	-0.022671325
216	0x3d131a88	0.035913974
217	0x3cf5550e	0.029947784
218	0x3d180832	0.03711719
219	0x3d2da02c	0.04238908
220	0x3c9fdbe8	0.01951404
221	0x3d23f583	0.04002906
222	0x3c5adaec	0.013357859
223	0x3c569ca8	0.013098873
224	0x3ced4a4c	0.028966092
225	0x3c919d34	0.017775156
226	0x3d35d522	0.044392712
227	0x3d149987	0.036279228
228	0x3d127425	0.035755295
229	0x3d4121cb	0.047151368
230	0x3ca9fbf6	0.020750027
231	0x3d13bafb	0.03606699
232	0x3ca78c1c	0.020452552
233	0x3d0b0866	0.033943556
234	0xbc088228	-0.008331813
235	0x3bc5755d	0.0060259537
236	0x3c900eb8	0.017585143
237	0x3cb4681c	0.0220223
238	0xbc7b0e2e	-0.015323205
239	0xbca6f006	-0.020378124
240	0x3afd650f	0.0019332486
241	0xbcbe4a85	-0.023228893
242	0xbc95c039	-0.018280135
243	0x3c1445a8	0.0090498105
244	0x3c11e170	0.008903846
245	0x3c620c93	0.013796943
246	0x3c8b4a17	0.017003102
247	0x3d0665fd	0.032812107
248	0x3d02152d	0.031758476
249	0x3d2ba9bf	0.04190993
250	0x3cf55e68	0.029952243
251	0x3d0ac523	0.03387941
252	0x3cb8d66e	0.022563186
253	0x3cf766a3	0.030200308
254	0x3d58e714	0.05295475
255	0x3c178b9b	0.009249593

encoder.0.bias f4 [16]
0	0xbbb4b6e6	-0.0055149673
1	0x3ddb64f4	0.10712615
2	0x3d0a004e	0.033691697
3	0x3d3b77f0	0.04576868
4	0x3cc6e8d4	0.024280943
5	0xbb865b03	-0.004100205
6	0xbb5636f8	-0.0032686573
7	0x3b8c2bca	0.004277681
8	0xb9c1003d	-0.00036812006
9	0xb9fb93d6	-0.00047984597
10	0x3b9c7e3a	0.0047757896
11	0xbccf9578	-0.025339827
12	0xbbb89eb4	-0.0056341533
13	0x3e10a9bf	0.14127253
14	0xbb227074	-0.0024786266
15	0xbcaacad5	-0.020848671

encoder.3.weight f4 [8, 16, 3, 3]
0	0xbcecd508	-0.028910175
1	0xbc8af5fb	-0.016962996
2	0x3dc9b7f7	0.09849542
3	0x3dcd91e1	0.1003759
4	0xbd14704e	-0.036239915
5	0x3cb3ed76	0.021963816
6	0x3dc7b26c	0.09750828
7	0x3dd40db9	0.1035418
8	0x3db6b66f	0.08921515
9	0xbd845f7f	-0.06463527
10	0x3da6147e	0.08109377
11	0x3d50bbde	0.050960414
12	0x3c98dd9f	0.018660365
13	0x3cbb70f6	0.022881012
14	0x3cd27cb1	0.025694223
15	0xbd196a40	-0.037454844
16	0x3d0455f2	0.032308526
17	0xbd8e97b1	-0.069625266
18	0x3c86a615	0.016436616
19	0xbd2f8d61	-0.04285944
20	0xbcf8df27	-0.030379845
21	0xbde347da	-0.11097689
22	0xbe0b4e49	-0.13604082
23	0xbd7039ac	-0.05864875
24	0xbd548bb6	-0.05189105
25	0xbdfb2b29	-0.122640915
26	0xbca84e52	-0.020545159
27	0xb8e8ec1c	-0.00011106601
28	0xbcf1c6ac	-0.02951368
29	0xbddcb779	-0.10777182
30	0xbdb4b932	-0.08824386
31	0xbe3edc44	-0.18638712
32	0xbd94f27f	-0.07272815
33	0x3cd4c3e9	0.025972323
34	0xbde78e84	-0.113064796
35	0xbe024870	-0.12722945
36	0xbc8f39b3	-0.017483568
37	0x3da3c6be	0.079968914
38	0x3dc8f537	0.09812396
39	0xbc9b49ad	-0.01895603
40	0xbe008f83	-0.12554745
41	0xbd7f2976	-0.0622954
42	0xbd334319	-0.04376516
43	0xbd904619	-0.0704462
44	0xbda7c31b	-0.0819151
45	0x3d82d811	0.06388868
46	0x3d7a7da9	0.061154995
47	0x3c9ab587	0.018885387
48	0xbc13a305	-0.009011035
49	0x399166f3	0.00027733258
50	0x3cc5a2a1	0.024125399
51	0x3c02c57c	0.007981654
52	0x3d819529	0.06327278
53	0x3d3c425a	0.045961715
54	0x3d724c37	0.059154715
55	0xbd02fdf0	-0.031980455
56	0x3d88b5c0	0.06675291
57	0x3db2cef5	0.0873088
58	0xbbc7782e	-0.0060873246
59	0xbd104594	-0.035222605
60	0x3d3d7e03	0.046262752
61	0xbc536737	-0.012903026
62	0x3d5810da	0.052750446
63	0x3d2fb494	0.042896822
64	0x3d8cf72f	0.06883084
65	0x3b25c83f	0.0025296358
66	0x3c0ab7b4	0.00846665
67	0x3cbf6b70	0.02336666
68	0x3d7e1465	0.06203117
69	0x3d4f2717	0.05057439
70	0x3dd3e2af	0.10345971
71	0x3de91c25	0.11382321
72	0x3dc123c2	0.094306484
73	0x3c30bacc	0.010786723
74	0x3c8173ef	0.015802352
75	0x3dd59b3c	0.10429999
76	0xbb5dbf38	-0.00338359
77	0x3dbc4cb1	0.09194315
78	0xbd4dd0f9	-0.05024812
79	0x3dac75da	0.08420916
80	0xbd068e57	-0.03285059
81	0x3d1eba75	0.038752038
82	0x3d2a42dd	0.041567672
83	0x3d9da2bb	0.07697054
84	0xbab36e36	-0.0013689462
85	0x3cb22cf3	0.02174995
86	0x3dc43463	0.095803045
87	0xbb8ac1d0	-0.00423453
88	0xb7da133d	-2.5996584e-05
89	0x3bbb3eed	0.0057142884
90	0xba63b4c5	-0.00086862996
91	0x3d7d7567	0.06187954
92	0xbd62d42f	-0.055378135
93	0xbdfd50e8	-0.12368947
94	0xbe22733f	-0.15864275
95	0x3c864b78	0.016393408
96	0xbdfba568	-0.12287408
97	0xbcddc3a8	-0.027070835
98	0xbe24b3fa	-0.1608428
99	0x3dbccac8	0.09218365
100	0xbd8f040e	-0.06983195
101	0xbd1fe487	-0.0390363
102	0xbd171ce8	-0.0368928
103	0x3d8e4df7	0.06948464
104	0xbc0ffe80	-0.008788705
105	0xbd124144	-0.035706773
106	0x3d71d2d6	0.05903896
107	0x3dba7daa	0.09106
108	0x3b39a0e7	0.0028324665
109	0xbd468eea	-0.048476137
110	0xbd36fe19	-0.04467592
111	0x3b5a0bc1	0.0033271166
112	0xbd5d511b	-0.054032426
113	0xbc1863a0	-0.009301096
114	0x3d908024	0.07055691
115	0x3d6fc08a	0.05853323
116	0xbd0286e9	-0.03186694
117	0x3baa475f	0.0051964964
118	0xbd7be6cd	-0.061499406
119	0x3c914f62	0.017738048
120	0xbd1a4cea	-0.037671007
121	0xbda42e45	-0.08016638
122	0x3d9da905	0.076982535
123	0xbdbe1699	-0.09281654
124	0x3d0c97ee	0.03432458
125	0xbda7f9fa	-0.08201976
126	0xbca62aa6	-0.020284008
127	0xbd713072	-0.05888409
128	0x3d59279e	0.053016298
129	0x3d70c754	0.058783844
130	0x3cf1f948	0.029537812
131	0x3db3dbf2	0.087821856
132	0x3941af95	0.00018471324
133	0xbc1aae82	-0.00944102
134	0x3ca83f7c	0.020538084
135	0xbc5ef991	-0.013609306
136	0xbd7a6454	-0.061130837
137	0xbd13e4bc	-0.03610681
138	0xbd766beb	-0.060161512
139	0x3d8541df	0.065067045
140	0x3d91f3a1	0.07126547
141	0x3d8b50b7	0.068025045
142	0xbd53b78d	-0.05168872
143	0x3cde8a71	0.027165623
144	0xbd567c07	-0.052364375
145	0xbda60578	-0.08106512
146	0xbceae7a7	-0.028674914
147	0xbc4301a2	-0.011902245
148	0xbd17c5e9	-0.037053976
149	0x3c332795	0.01093473
150	0xbcfd0e55	-0.030890623
151	0x3ccbc4bd	0.024874086
152	0x3bf74bc2	0.007546873
153	0x3e00ff6a	0.12597433
154	0x3e288033	0.16455154
155	0x3d020472	0.03174252
156	0x3da2f711	0.079572804
157	0x3d4ad8ac	0.04952304
158	0x3e1cf3b9	0.15327348
159	0x3d9c05d3	0.076182984
160	0x3db49b41	0.08818675
161	0x3dd805af	0.10547959
162	0xbd6b75fa	-0.057485558
163	0xbd93256b	-0.07184871
164	0xbd8bac4a	-0.06819971
165	0xbd71f013	-0.059066843
166	0xbcf1164f	-0.029429583
167	0xbc9e36d3	-0.019313252
168	0x3dcf61ab	0.101260506
169	0xbcfbba48	-0.030728474
170	0xbc888ca2	-0.016668621
171	0x3da0a0af	0.07843148
172	0x3c0f9433	0.008763361
173	0xbdfbf549	-0.12302644
174	0x3cf5133f	0.029916404
175	0xbd814235	-0.06311456
176	0xbd2a5f9d	-0.04159509
177	0x3df253d1	0.11832393
178	0xbd0e9070	-0.034805715
179	0x3d10cc50	0.035351098
180	0x3d67f9c8	0.056634694
181	0x3d174657	0.036932316
182	0xbd9ec8c7	-0.07753139
183	0x3d896223	0.06708171
184	0xbd1b70af	-0.03794926
185	0xbdce4797	-0.100722484
186	0x3e18b7a4	0.14913803
187	0x3d71eb35	0.0590622
188	0xbd7d9b30	-0.061915576
189	0xbc98c769	-0.018649774
190	0xb9c59631	-0.0003768667
191	0xbdb642aa	-0.08899434
192	0xbd2c0fb4	-0.042007163
193	0xbd6f4edf	-0.058424827
194	0xbd8746c5	-0.06605295
195	0x3d2e0cf1	0.04249281
196	0x3d88f173	0.06686678
197	0x3d4bcdb9	0.04975674
198	0x3bd42415	0.006474028
199	0xbc54fc05	-0.012999539
200	0xbd7673b8	-0.06016895
201	0x3c1634be	0.009167848
202	0xbda70047	-0.0815435
203	0x3d40a8ac	0.047035858
204	0x3b38aca3	0.0028179071
205	0x3c88f0b8	0.016716346
206	0x3da4a8c8	0.08040005
207	0x3d19c7e0	0.03754413
208	0x3b49eae9	0.0030810183
209	0x3d1308dc	0.03589712
210	0x3c5bb373	0.013409483
211	0xbda0886c	-0.078385204
212	0xbd0e6a57	-0.034769382
213	0xbdbdcfa1	-0.09268118
214	0x3dbb30c0	0.09140158
215	0x3d929e0f	0.071590535
216	0x3d7c1a49	0.061548505
217	0xbdaf3060	-0.08554149
218	0xbd2758a9	-0.040856037
219	0xbd9300a5	-0.07177857
220	0x3c5b6ebe	0.013393102
221	0xbdef9c1d	-0.11699698
222	0x3cba1018	0.022712752
223	0x3d94a7c5	0.07258562
224	0x3decace2	0.11556412
225	0x3d79109c	0.060806856
226	0xb9ebb4a6	-0.00044957286
227	0xbd6094d2	-0.054829426
228	0xbd9b8382	-0.075934425
229	0xbdcb2e1a	-0.099209026
230	0xbd8f2ef7	-0.0699138
231	0xbd28848b	-0.041142028
232	0x3bd196f7	0.0063961702
233	0xbd7682c8	-0.060183316
234	0x3da6bef3	0.081418894
235	0xbd738d65	-0.059461016
236	0xbe614f56	-0.2200292
237	0x3cda3fe4	0.026641794
238	0x3b86bc2f	0.0041117887
239	0xbd505a38	-0.05086729
240	0x3d2e862b	0.04260842
241	0x3ce4b064	0.02791614
242	0x3cb9f03e	0.022697564
243	0xbd8ca433	-0.06867256
244	0xbd04b9e1	-0.03240383
245	0xbe047e27	-0.12938748
246	0x3c6d0468	0.014466383
247	0xbb828361	-0.0039829467
248	0xbd734d28	-0.059399754
249	0xbd856607	-0.06513601
250	0xbd98e57d	-0.074656464
251	0xbd36634c	-0.04452829
252	0xbb09a817	-0.002100473
253	0xbd797d56	-0.060910545
254	0xbd43282b	-0.04764573
255	0xbd0925a8	-0.033483177

encoder.3.bias f4 [8]
0	0xbb83881c	-0.0040140282
1	0x3e10fbde	0.1415858
2	0x3cfc9958	0.030834839
3	0x3d4e5e08	0.050382644
4	0x3d9de5a2	0.077098146
5	0x3db0dc5c	0.0863578
6	0x3c815ce1	0.015791358
7	0x3d6e61a1	0.058198575

encoder.6.weight f4 [4, 8, 3, 3]
0	0x3ceeef49	0.029166834
1	0x3da6c8c5	0.081437625
2	0x3d8ea5f9	0.069652505
3	0xbc4782f9	-0.012177222
4	0xbd51039d	-0.051028837
5	0xbd486ae0	-0.04893005
6	0x3cbace25	0.022803375
7	0xbda6052a	-0.08106454
8	0xbde379bb	-0.111072026
9	0xbecc8249	-0.3994315
10	0xbe0d12d6	-0.13776717
11	0xbe8dbd2d	-0.27683392
12	0xbe0ab506	-0.13545617
13	0xbe6a9fdd	-0.22912546
14	0xbdeb1ecb	-0.11480483
15	0xbbfc5d8e	-0.0077015823
16	0x3d010b49	0.031504903
17	0xbca6ee2c	-0.020377241
18	0x3e00e2b9	0.12586488
19	0x3d95b8dc	0.0731065
20	0x3dae6fc4	0.08517411
21	0xbc3c53e9	-0.011494615
22	0xbd4a216e	-0.049348287
23	0x3cd6b86c	0.026210986
24	0xbd457259	-0.048204754
25	0xba7a63fe	-0.0009551643
26	0xbe152fa0	-0.14568949
27	0xbe7d2cdb	-0.24724142
28	0xbd99e705	-0.075147666
29	0xbe0d5b7b	-0.13804428
30	0xbc465e99	-0.012107515
31	0xbe748b73	-0.2388132
32	0xbd8009d4	-0.062518746
33	0xbdffe8ba	-0.12495561
34	0xbdc8e08e	-0.098084554
35	0x3c386f1f	0.011256962
36	0x3dbc1d2a	0.0918525
37	0x3d917786	0.071028754
38	0x3ce36619	0.027758645
39	0xbd41e612	-0.047338553
40	0xbd1df442	-0.03856302
41	0x3d67d513	0.056599688
42	0x3df25ba9	0.11833889
43	0x3d716362	0.05893267
44	0x3d83b823	0.06431606
45	0xbe2e6c72	-0.17033556
46	0xbd875aa4	-0.06609085
47	0x3d3d9063	0.046280276
48	0x3d6ecd5b	0.05830131
49	0xbe1d9db5	-0.15392192
50	0x3cc92bfe	0.02455711
51	0x3d9d934c	0.0769411
52	0x3ca965b6	0.020678382
53	0x3e12b527	0.14326917
54	0x3d4456f8	0.047934502
55	0x3ce896b8	0.02839218
56	0x3d9ff06a	0.07809527
57	0xbdc60d06	-0.09670453
58	0xbc7d35d0	-0.015454724
59	0x3d615911	0.05501658
60	0xbcc18c72	-0.02362654
61	0xbc9dcb3c	-0.019261949
62	0x3ce0ca1e	0.027440127
63	0x3d92394a	0.07139833
64	0x3e098173	0.13428287
65	0xbd86de5f	-0.06585383
66	0xbc4ca669	-0.012490847
67	0x3d5d2b51	0.053996388
68	0x3d49c315	0.04925831
69	0x3c95988c	0.018261217
70	0xbd3d398a	-0.04619745
71	0xbdbaa4ec	-0.091134876
72	0xbd9bfbdf	-0.076164
73	0xbe1a2697	-0.15053783
74	0xbbaafc4e	-0.0052180653
75	0xbe1ca1b5	-0.15296061
76	0x3cad7849	0.02117552
77	0xbd60c89a	-0.05487881
78	0x3d675751	0.056479756
79	0xbe0ff491	-0.14058138
80	0xbdab2e7b	-0.08358475
81	0x3e2aacef	0.16667531
82	0x3daaf3a4	0.08347252
83	0xbe176274	-0.1478365
84	0xbe0694ab	-0.1314265
85	0x3d90f771	0.07078446
86	0x3ca1e7ae	0.019763794
87	0xbd055f26	-0.032561444
88	0xbcc1225a	-0.02357595
89	0xbe525fd6	-0.20544371
90	0xbcb4df61	-0.022079172
91	0x3b2f16bb	0.002671643
92	0x3def0b86	0.1167212
93	0x3c2dd606	0.010610109
94	0xbdc75d4f	-0.09734594
95	0x3dddb023	0.10824611
96	0xbc04379a	-0.008069897
97	0xbd18c54c	-0.037297532
98	0x3dfd6530	0.123728156
99	0xbe20ad1c	-0.15691036
100	0x3d0790df	0.033097144
101	0x3e514ea8	0.20440161
102	0xbdadfa68	-0.08495027
103	0xbdbdcf67	-0.092680745
104	0x3d57976d	0.052634645
105	0x3ced7ab1	0.028989168
106	0xbe6e1840	-0.23251438
107	0xbdca844f	-0.09888517
108	0xbbb5420c	-0.005531555
109	0xbda5334e	-0.08066426
110	0xbd8fa7d4	-0.070144325
111	0xbcdb2f3e	-0.026755925
112	0x3d0fcadc	0.03510557
113	0x3e01e422	0.12684682
114	0x3dd0557b	0.10172554
115	0x3d9c5889	0.07634074
116	0x3da7c2f9	0.08191485
117	0x3b4095f8	0.0029386263
118	0x3dc66585	0.09687332
119	0x3d460586	0.04834511
120	0x3d82bd56	0.06383769
121	0xbdac50c0	-0.08413839
122	0x3d0aad6c	0.033856794
123	0xbb122fdd	-0.002230636
124	0x3dbc3ed6	0.091916725
125	0x3e0a5448	0.13508713
126	0xbd0a45b7	-0.03375789
127	0x3ba8850a	0.0051428126
128	0xbd7b6e1a	-0.061384298
129	0xbd142bd6	-0.036174618
130	0xbdb4742d	-0.08811221
131	0x3dd2b051	0.10287536
132	0xbd1ce6d8	-0.038306087
133	0xbd90635d	-0.07050202
134	0xbde9bc15	-0.11412827
135	0xbdae84d8	-0.08521432
136	0xbdadf76c	-0.084944576
137	0x3c6fd5b1	0.01463835
138	0xbd05a57d	-0.032628525
139	0x3bd91b54	0.006625572
140	0x3e0513c3	0.1299582
141	0x3dbdf174	0.09274569
142	0x3dcdf763	0.10056951
143	0x3d2c6194	0.042085245
144	0x3e0381a8	0.12842429
145	0xbd13e421	-0.036106233
146	0xbe405406	-0.18782052
147	0x3d2bde78	0.04196021
148	0x3df7e18d	0.12103567
149	0xbe340b8f	-0.17582534
150	0x3e145768	0.14486468
151	0xbd5f3d2f	-0.05450171
152	0x3d785439	0.060627196
153	0xbd790c41	-0.0608027
154	0xbdf04936	-0.11732714
155	0xbe00d885	-0.12582596
156	0xbe8d2656	-0.2756831
157	0xbdf8787e	-0.12132357
158	0xbdd66ce3	-0.10469987
159	0xbef62831	-0.4807754
160	0xbe6936cc	-0.2277481
161	0xbe3e3eb2	-0.18578604
162	0x3c111a3a	0.008856351
163	0xbcbc410f	-0.022980241
164	0x3da3522d	0.07974658
165	0x3ca6086e	0.020267691
166	0x3d76401d	0.060119737
167	0xbe18a8f7	-0.14908205
168	0x3df72b04	0.120687515
169	0xbd3d7873	-0.046257447
170	0xbdc88a8c	-0.09792051
171	0xbdcde96f	-0.100542895
172	0xbe7a450b	-0.244404
173	0x3d82bfac	0.06384215
174	0xbe58a44b	-0.21156423
175	0xbe9b4ed7	-0.30333588
176	0xbdc81419	-0.09769458
177	0xbdb73c80	-0.08947086
178	0xbe341806	-0.17587289
179	0xbd338020	-0.04382336
180	0x3e499057	0.19683968
181	0x3c92b89e	0.017910298
182	0x3d188349	0.03723458
183	0x3e2de41d	0.1698155
184	0x3d463369	0.048388872
185	0x3d9620b3	0.07330456
186	0xbcacce9d	-0.021094615
187	0x3d2c24a9	0.04202715
188	0x3dbc82a1	0.09204603
189	0xbdf731a7	-0.12070017
190	0x3cd065b5	0.025439123
191	0xbd6fa52f	-0.05850714
192	0xbda86c53	-0.08223786
193	0xbd531b27	-0.051539566
194	0xbd8aaddc	-0.06771442
195	0xbe6de096	-0.23230204
196	0x3cd27639	0.025691139
197	0xbdd8524e	-0.105625734
198	0x3c0806cc	0.008302402
199	0x3dbd3ed2	0.09240498
200	0xbdfe0386	-0.12403016
201	0x3de4c084	0.11169532
202	0xbb93255f	-0.004490539
203	0xbd0164ce	-0.031590275
204	0xbd14ac25	-0.036296982
205	0xbbb7db7e	-0.0056108823
206	0xbde6bf7d	-0.11266992
207	0x3c747da3	0.014922532
208	0x3cf148d0	0.029453665
209	0xbcb59315	-0.02216486
210	0xbd2a8ad2	-0.041636296
211	0x3e0ac3b2	0.13551214
212	0xbc5ea5fb	-0.0135893775
213	0x3db1b715	0.08677498
214	0xbd93d629	-0.07218582
215	0x3d93b6ed	0.07212625
216	0xbde4c9a6	-0.11171274
217	0x3d07ddaf	0.0331704
218	0x3da4f45c	0.0805442
219	0x3c9d154b	0.019175192
220	0x3df0fbe8	0.11766797
221	0x3df41045	0.11917166
222	0xbc9e2310	-0.019303828
223	0x3d71aeb3	0.059004497
224	0x3a00030e	0.00048832677
225	0xbd8d3b28	-0.06896049
226	0x3cdc79fb	0.026913634
227	0xbd9f372d	-0.07774196
228	0xbdba53cf	-0.090980165
229	0x3de92bd3	0.11385312
230	0xbdbeca30	-0.09315908
231	0xbcb4b555	-0.022059122
232	0x3d70cc71	0.05878872
233	0x3d3581b5	0.04431315
234	0xbc529ab0	-0.012854263
235	0x3da70248	0.08154732
236	0x3d33e0d7	0.043915596
237	0x3bb2b990	0.0054542497
238	0x3b98fee8	0.004669059
239	0x3d830924	0.06398228
240	0x3ddea086	0.10870461
241	0x3d4d075a	0.05005584
242	0xbd0f58f5	-0.034996945
243	0xbc8a599f	-0.016888438
244	0xbd97dc19	-0.07415027
245	0xbe3554a9	-0.17708077
246	0x3bb24964	0.0054408778
247	0xbdd48115	-0.10376183
248	0xbdc54576	-0.09632389
249	0xbd093834	-0.033500865
250	0x3d9caf0b	0.07650574
251	0xbdfaae2b	-0.12240251
252	0x39ebcf95	0.00044977354
253	0x3d4fca2b	0.05072991
254	0xbd105d8a	-0.035245456
255	0x3da3e56f	0.08002745

encoder.6.bias f4 [4]
0	0xbdded498	-0.10880393
1	0x3db7453b	0.089487515
2	0xbdd58cd8	-0.104272544
3	0xbb29fdf9	-0.0025938733

decoder.0.weight f4 [4, 8, 4, 4]
0	0x3dd80726	0.105482385
1	0x3c0ef8d7	0.00872632
2	0xbc616029	-0.0137558365
3	0x3c965ceb	0.018354854
4	0x3dcbb596	0.09946744
5	0x3b83cfe5	0.0040225857
6	0xbd28f86b	-0.041252535
7	0x3d8aecf1	0.06783474
8	0x3c1cec13	0.009577769
9	0xbd907b97	-0.07054823
10	0xbd5d9d67	-0.05410519
11	0x3ca67fe2	0.020324651
12	0xbce957a4	-0.028484173
13	0x3cb9aae4	0.022664495
14	0x3b60ee34	0.0034321668
15	0xbcc74044	-0.024322636
16	0xbdafa46f	-0.08576285
17	0x3dd4fa9f	0.10399365
18	0x3df61b39	0.12016911
19	0x3d71f46f	0.059071
20	0xbda6e74b	-0.081495844
21	0x3da516a0	0.08060956
22	0x3e04fe67	0.12987672
23	0x3d8fc15e	0.07019304
24	0xbcb1982b	-0.021679005
25	0x3ddf4ff9	0.109039254
26	0x3da2668d	0.07929716
27	0xbd410398	-0.047122568
28	0xbe8751fe	-0.26429743
29	0x3cfd454d	0.030916834
30	0xbdb8b88b	-0.09019574
31	0xbde2d0f1	-0.11075009
32	0xbe373230	-0.17890239
33	0x3c8a2ca6	0.016866993
34	0x3d28db4c	0.041224763
35	0xbde4d504	-0.11173442
36	0xbd91f59b	-0.07126924
37	0x3d088507	0.03332999
38	0x3db0e0cc	0.086366266
39	0xbd013d8d	-0.03155284
40	0xbbf4a74b	-0.007466232
41	0xba90106c	-0.0010991222
42	0x3c2660c9	0.010154911
43	0xbbad479d	-0.005288078
44	0x3da0b828	0.07847625
45	0x3d703315	0.058642466
46	0xbc90918b	-0.017647525
47	0xbcaf5b6b	-0.021405896
48	0x3c90cc1a	0.017675448
49	0x3dd800ba	0.105470136
50	0x3df1719c	0.117892474
51	0xbcc88d43	-0.024481421
52	0x3e203d31	0.15648343
53	0x3d8d363d	0.06895111
54	0x3cd4c8cf	0.02597466
55	0x3cd12029	0.02552803
56	0x3c9238c4	0.017849334
57	0x3d24fb85	0.04027893
58	0xbdbd6ff7	-0.09249871
59	0xbce96df8	-0.02849482
60	0xbdbb95f6	-0.09159462
61	0x3c06fbaf	0.008238717
62	0xbde771e6	-0.11301021
63	0xba3c88db	-0.0007192024
64	0x3c3e7b6f	0.011626109
65	0x3de321f5	0.11090461
66	0x3abba74d	0.0014316827
67	0x3d3aa701	0.045569424
68	0xbe3b255f	-0.18275975
69	0x3cf9ff7d	0.030517334
70	0xbe678951	-0.22610976
71	0xbe236489	-0.1595632
72	0x3d157f70	0.036498487
73	0xbd807309	-0.06271941
74	0xbd340a93	-0.043955397
75	0xbe13b483	-0.14424329
76	0xbba67f94	-0.0050811265
77	0xbdae91c8	-0.08523899
78	0xbd8b203a	-0.06793256
79	0x3d62e83c	0.055397257
80	0xbd80395d	-0.06260941
81	0x3c38d3d2	0.011280971
82	0x3b5cf5d5	0.0033715863
83	0xbd8711cd	-0.06595192
84	0x3cd23075	0.025657872
85	0xbcdbcf7e	-0.026832338
86	0xbce00cf4	-0.027349927
87	0xbc177fd6	-0.009246787
88	0x3bfc4fbb	0.0076999343
89	0x3d6543b5	0.055972774
90	0xbd1620d0	-0.036652386
91	0xbc46a450	-0.012124136
92	0xbcfc67fe	-0.030811306
93	0x3d084eb9	0.0332782
94	0xbdf4c10c	-0.11950883
95	0xbd07b9bf	-0.033136126
96	0x3d1fe01d	0.03903209
97	0x3d65bd7b	0.056088906
98	0xbd380887	-0.044930007
99	0x3d571692	0.05251176
100	0x3abae067	0.0014257551
101	0x3d2b65f6	0.041845284
102	0x3c9ea3f6	0.019365292
103	0x3d361edb	0.04446302
104	0x3cb9d16c	0.022682868
105	0x3d97de33	0.07415428
106	0xbc52152d	-0.0128224315
107	0xbcbcd4b5	-0.023050645
108	0xbccc83e3	-0.024965232
109	0xbe11454b	-0.1418659
110	0x3de21a38	0.11040157
111	0xbc277996	-0.010221859
112	0xbdf7ce61	-0.120999105
113	0xbd8db175	-0.06918613
114	0x3d9220f0	0.071351886
115	0x3dda3ccd	0.10656128
116	0xbca92c24	-0.02065093
117	0xbdd57e78	-0.104245126
118	0xbaf68018	-0.0018806485
119	0x3cdabd39	0.026701557
120	0x3d2945f5	0.04132648
121	0xbe0a725f	-0.13520192
122	0x3d0f3fa8	0.034972817
123	0xbc9f883d	-0.019474143
124	0x3a95447d	0.0011388209
125	0xbbd285ed	-0.0064246566
126	0xbc34d030	-0.011035964
127	0xbdbaf658	-0.091290176
128	0xbd82c967	-0.06386071
129	0xbcc70c68	-0.024297908
130	0x3d182a83	0.037149917
131	0x3d5a8203	0.053346645
132	0xbd24c5c0	-0.04022765
133	0xbe82ac40	-0.2552204
134	0xbce0ab22	-0.027425352
135	0xbb825a53	-0.0039780526
136	0x3dc24e29	0.09487564
137	0xbcb65610	-0.022257835
138	0xbdd311ff	-0.10306167
139	0x3d02b5c0	0.03191161
140	0x3d028978	0.03186938
141	0xbd119eee	-0.035551958
142	0xbda27a2e	-0.0793346
143	0x3deb94b2	0.11502971
144	0x3dd9bff9	0.10632319
145	0x3d0056bb	0.031332713
146	0x3d59a5db	0.053136688
147	0x3d88ae36	0.06673853
148	0x3dc78f40	0.0974412
149	0x3d00dabd	0.031458605
150	0xbd3e458e	-0.04645305
151	0xbd2be667	-0.041967776
152	0x3d737c3c	0.05944465
153	0x3dde77f2	0.108627215
154	0xbc2b6f41	-0.010463537
155	0xbc51e414	-0.012810726
156	0x3e04125f	0.12897633
157	0x3dc22089	0.09478862
158	0x3d991e56	0.07476489
159	0xbd42088d	-0.047371436
160	0x3d9acd27	0.07558661
161	0xbcbb034e	-0.022828724
162	0x3c3f4f87	0.011676676
163	0x3de82619	0.113353916
164	0x3d35b099	0.04435787
165	0x3bd6bf9e	0.0065536043
166	0xbc9b332f	-0.018945305
167	0x3aa43f1c	0.0012531015
168	0xbd91c6ad	-0.071179725
169	0xbd9dcfee	-0.07705675
170	0x3c80cea7	0.01572354
171	0xbd20ad24	-0.03922762
172	0xbd1c125d	-0.03810345
173	0xbdc5f9e2	-0.09666802
174	0xbcc47c82	-0.023985151
175	0xbd75fa8a	-0.060053386
176	0xbd04954a	-0.032368936
177	0xbc20357b	-0.009778376
178	0x3b8ab218	0.004232656
179	0xbd85d335	-0.06534425
180	0xbe4347c5	-0.19070347
181	0xbdb7e31d	-0.08978865
182	0x3d5d8863	0.054085147
183	0x3c2c1f44	0.010505501
184	0x3c0ea7b3	0.008706975
185	0xbb207619	-0.0024484454
186	0xbd358030	-0.044311702
187	0x3d285434	0.041095927
188	0xbd018d89	-0.03162912
189	0x3b081bd6	0.0020768545
190	0x3d9014e2	0.07035233
191	0x3d99d3b9	0.07511086
192	0xbda76250	-0.081730485
193	0xbd8fab62	-0.070151106
194	0xbb27c1f3	-0.002559778
195	0xbd731b05	-0.05935194
196	0xbdbd5a8a	-0.092457846
197	0xbd8ff0a8	-0.070283234
198	0xbe4c6ce3	-0.19963412
199	0xbd3ec86b	-0.046577852
200	0xbda0f935	-0.078600325
201	0x3dbed1b3	0.09317341
202	0xbd06f460	-0.032947898
203	0xbda30070	-0.07959068
204	0xbdc559dd	-0.09636281
205	0x3dbb9eef	0.091611736
206	0xbd408133	-0.046998214
207	0xbdea7a01	-0.11449052
208	0x3c60b332	0.0137145985
209	0x3da0eb01	0.078573234
210	0x3d763e41	0.060117964
211	0x3c89f9fd	0.016842837
212	0xbe07132e	-0.1319091
213	0xbd992ffd	-0.07479856
214	0x3d05afbe	0.032638304
215	0xbcae946b	-0.021311006
216	0xbbf04897	-0.007332872
217	0xbd489b65	-0.04897632
218	0x3e282ea0	0.16424036
219	0x3bf3fdab	0.007446011
220	0xbd34f1a7	-0.04417577
221	0xbd380193	-0.044923376
222	0xbb964abd	-0.004586546
223	0xbda6d516	-0.08146112
224	0xbd45da63	-0.048303973
225	0x3c309b20	0.010779172
226	0xbe0424e3	-0.12904696
227	0x3b165271	0.0022937323
228	0xbdc75509	-0.09733016
229	0xbd92d95d	-0.07170365
230	0xbe251248	-0.16120255
231	0x3e069fbf	0.13146876
232	0xbde6c038	-0.112671316
233	0xbe591dd3	-0.21202783
234	0xbd6daa20	-0.058023572
235	0xbe4b36bf	-0.19845103
236	0xbe09a267	-0.13440858
237	0x3da0f1dc	0.07858631
238	0xbda4bbd5	-0.080436386
239	0x3ded0602	0.115734115
240	0xbe788175	-0.24268134
241	0xbcc39aec	-0.023877583
242	0x3e05a48a	0.13051048
243	0x3c37ff96	0.01123037
244	0xbe5426f0	-0.20717978
245	0xbdbc782a	-0.09202607
246	0xbcf58518	-0.02997069
247	0xbdc2af67	-0.095061116
248	0x3d9f9c9c	0.07793543
249	0x3ce08d90	0.027411252
250	0x3da12264	0.078678876
251	0x3deac5b9	0.11463494
252	0x3d9dfac2	0.07713844
253	0x3c97f1f8	0.018547997
254	0x3d23b8eb	0.039971273
255	0xbce45dca	-0.027876753

decoder.0.bias f4 [8]
0	0x3ce2cdbc	0.027685992
1	0xbdd6215e	-0.10455583
2	0xbe235749	-0.15951265
3	0xbd979f8f	-0.0740348
4	0x3cb20d54	0.021734871
5	0xbd5f9c6c	-0.054592535
6	0xbd9006d5	-0.07032553
7	0x3cab1092	0.020881925

decoder.2.weight f4 [8, 16, 3, 3]
0	0xbd962f3b	-0.07333227
1	0x3d98713b	0.07443472
2	0x3db76a23	0.08955791
3	0x3c81cc0c	0.015844367
4	0x3d802e6f	0.062588565
5	0x3deb2c18	0.114830196
6	0xbd9ad905	-0.075609244
7	0xbc9998b5	-0.018749574
8	0xbd8c54d8	-0.0685212
9	0xbd3506da	-0.044195987
10	0xbd6c4c27	-0.057689812
11	0x3d8f055e	0.069834456
12	0x3c913790	0.01772669
13	0x3d42e3be	0.047580473
14	0xbcdf9a3a	-0.02729522
15	0x3d530bca	0.051524915
16	0xbd8ed5b0	-0.069743514
17	0x3d29ac24	0.04142393
18	0xbc4c7b68	-0.012480594
19	0xbcf863f4	-0.030321099
20	0xbd8a2ede	-0.067472205
21	0x3d93efa1	0.0722344
22	0x3d6d0580	0.057866573
23	0x3d28a20d	0.04117017
24	0x3ca10a59	0.019658254
25	0x3d280881	0.041023735
26	0x3d12c25e	0.035829894
27	0x3c3933ce	0.011303855
28	0xbd4c4d47	-0.049878385
29	0xbb1143d0	-0.0022165664
30	0x3d41ebce	0.04734402
31	0x3d11ba5a	0.03557811
32	0x3de8cbb9	0.11366982
33	0x3d33610a	0.043793716
34	0xbc6f9fac	-0.014625471
35	0x3bc95a05	0.0061447644
36	0xbc8dcab2	-0.017308567
37	0xbd2b46ca	-0.041815557
38	0xbd5479bc	-0.051873907
39	0x3d50b53d	0.050954092
40	0x3d066a89	0.032816444
41	0x3d1335dc	0.035940036
42	0xbdc6a3a9	-0.096991844
43	0x3d94e9e7	0.07271176
44	0x3da51bcd	0.08061943
45	0xbd3be6ab	-0.04587428
46	0x3d9a98d1	0.07548679
47	0x3c9b5352	0.018960629
48	0x3c9cf892	0.019161496
49	0xbb35285f	-0.0027642471
50	0x3de51b04	0.111867934
51	0xbd5b4078	-0.05352828
52	0xbcaf227b	-0.021378746
53	0x3c6231e0	0.013805836
54	0x3c880857	0.01660554
55	0x3da62de3	0.08114221
56	0x3cd46084	0.025924928
57	0xbbbd3774	-0.005774433
58	0x3d2b70a6	0.041855477
59	0xbd1bcc0e	-0.0380364
60	0xbd2886b9	-0.041144107
61	0x3d725eeb	0.059172552
62	0xbcc3727a	-0.023858298
63	0xbd1463da	-0.03622804
64	0xbd5d2e7a	-0.0539994
65	0x3dd416ba	0.10355897
66	0x3cf3236f	0.029679982
67	0xbd1afe40	-0.037840128
68	0x3d8fcda6	0.07021646
69	0xbd199115	-0.037491877
70	0x3db16323	0.08661487
71	0xbc865a1f	-0.016400395
72	0x3d3fe9a4	0.046853676
73	0xbd0296ec	-0.03188221
74	0x3dd5a1d4	0.10431257
75	0xbd242bf3	-0.040080976
76	0xbe38a233	-0.18030624
77	0x3c1fd017	0.009754202
78	0xbd4039c4	-0.04693009
79	0x3c9768e8	0.01848264
80	0x3c1b98a2	0.00949684
81	0xbc3adbf4	-0.01140498
82	0x3dc5b7f8	0.0965423
83	0xbb9b2420	-0.004734531
84	0xbbd8344e	-0.006598032
85	0xbc72d92f	-0.014822288
86	0xbdd0188c	-0.10160932
87	0xbc505610	-0.012715831
88	0x3be75867	0.007060099
89	0x3d7ef0cf	0.06224137
90	0xbcf26a4c	-0.029591702
91	0xbdc2325d	-0.09482262
92	0xbc4374c9	-0.011929699
93	0xbd58fc35	-0.0529749
94	0x3c711314	0.014714021
95	0xbced6486	-0.028978597
96	0x3b8c9730	0.004290484
97	0xbd365a78	-0.04451987
98	0x3d6dcc35	0.058056075
99	0x3d3442da	0.044009067
100	0xbd6b5688	-0.05745557
101	0xbd204c1e	-0.03913509
102	0xbe00dac2	-0.1258345
103	0xbd692b0f	-0.05692583
104	0xbd94d098	-0.072663486
105	0xbdca0484	-0.098641425
106	0x3d56eafc	0.052470192
107	0xbbac4201	-0.0052568917
108	0xbcc78023	-0.024353093
109	0xbe98549d	-0.29752055
110	0xbcd6cb28	-0.02621992
111	0xbe674fe0	-0.22589064
112	0xbdf4cf64	-0.11953619
113	0x3c30e089	0.010795721
114	0x3da9473c	0.0826554
115	0xbd1c0b17	-0.038096514
116	0xbd431278	-0.047625035
117	0xb8ff8fc1	-0.00012186124
118	0x3cc676af	0.024226515
119	0x3bc14b6e	0.0058988845
120	0x3d4c2642	0.049841173
121	0x3da99031	0.082794555
122	0xbd656f28	-0.05601421
123	0xbc799280	-0.015232682
124	0x3d58b41d	0.052906144
125	0x3d7b473f	0.061347242
126	0xbe1b87bb	-0.15188496
127	0xbd8b8eec	-0.068143696
128	0xbe6c6008	-0.23083508
129	0x3cc5ae35	0.02413092
130	0x3d39f378	0.045398206
131	0x3d2e2ef6	0.042525254
132	0xbe1ed318	-0.15510213
133	0x3d7eda03	0.06221963
134	0xbde33593	-0.11094203
135	0xbcaeb971	-0.02132866
136	0x3b1c7395	0.0023872603
137	0x3d55cc48	0.05219677
138	0x3d8ab585	0.06772903
139	0x3bb996e8	0.0056637414
140	0xbbbffc50	-0.0058589354
141	0x3c530654	0.012879927
142	0x3d923a4c	0.071400255
143	0xbd1b9008	-0.037979156
144	0x3c51939d	0.012791541
145	0xbdeb1103	-0.11477854
146	0xbe06a8a3	-0.13150267
147	0xbd858d96	-0.06521146
148	0xbd6f7553	-0.0584615
149	0xbd9c681b	-0.07637044
150	0x3cfbf10f	0.030754594
151	0xbcb47248	-0.02202715
152	0xbc9c0413	-0.019044911
153	0xbe83b4ba	-0.2572382
154	0xbdadacfc	-0.0848026
155	0xbe52f454	-0.20601016
156	0xbe0ea9a6	-0.13931903
157	0xbcd27d1a	-0.025694419
158	0xbdbf3752	-0.093367234
159	0xbe6a2187	-0.22864352
160	0xbcd556d4	-0.02604238
161	0xbe8b2b4d	-0.27181473
162	0xbce101f5	-0.027466753
163	0xbcc9a3d1	-0.024614247
164	0x3c31acbd	0.010844407
165	0xbdc7d66b	-0.09757694
166	0xbd62dd57	-0.055386867
167	0xbe057910	-0.13034463
168	0xbc85d071	-0.016334744
169	0xbc865665	-0.016398618
170	0xbc038a3e	-0.008028565
171	0xbd9ccf51	-0.0765673
172	0xbd823055	-0.06356875
173	0xbd5dbae8	-0.054133326
174	0xbdfcfc00	-0.12352753
175	0xbdd1b1a7	-0.102389626
176	0xbd475b80	-0.048671246
177	0xbcf96cf8	-0.030447468
178	0xbd897eed	-0.06713662
179	0xbd0c65a9	-0.03427664
180	0xbd64bb26	-0.05584254
181	0xbddaafa5	-0.10678033
182	0xbd01ecf1	-0.031720106
183	0xbe315c55	-0.17320378
184	0xbcca4299	-0.02468996
185	0xbdfb1ea7	-0.12261706
186	0x3cef5f20	0.029220164
187	0xbe229f57	-0.15881096
188	0x3bc8dde6	0.006129968
189	0xbe9184bc	-0.2842158
190	0xbe7fdb12	-0.24985912
191	0xbde401c0	-0.11133146
192	0xbe524e4b	-0.20537679
193	0xbe7cf195	-0.24701531
194	0xbdbdc3fc	-0.09265897
195	0xbe7f1d1d	-0.2491345
196	0xbe8ed79c	-0.27898872
197	0xbe5aa683	-0.21352582
198	0xbd610fb6	-0.054946624
199	0xbde40d99	-0.11135406
200	0xbd1b0fe7	-0.037856963
201	0xbd71d866	-0.059044264
202	0xbc9abc8b	-0.018888732
203	0xbce8afe6	-0.028404187
204	0x3d63103e	0.05543541
205	0xbcd5808a	-0.026062269
206	0x3c2b56aa	0.010457674
207	0xbd29165b	-0.041281085
208	0x3d08d110	0.033402503
209	0xbce32ce4	-0.027731366
210	0x3ddcd4ab	0.10782751
211	0xbde5b39f	-0.11215901
212	0x3ca0971f	0.01960331
213	0xbcbabaa8	-0.022794083
214	0x3d96260e	0.07331477
215	0x3d82cd27	0.06386786
216	0xbe087084	-0.13324171
217	0xbe370ba3	-0.17875533
218	0xbdc436ec	-0.09580788
219	0xbd82271c	-0.06355116
220	0xbc73c92c	-0.014879506
221	0xbdbe4e42	-0.0929227
222	0xbe120ab7	-0.142619
223	0xbdd06425	-0.10175351
224	0xbd353a68	-0.044245154
225	0xbd505f6a	-0.050872244
226	0x3ccdd522	0.025126044
227	0xbd79a536	-0.060948573
228	0x3ce259af	0.027630655
229	0xbc438aa1	-0.011934907
230	0x3d983e3b	0.074337445
231	0xbd0f138d	-0.034930754
232	0xbce207cc	-0.027591608
233	0xbd37ed9d	-0.04490434
234	0xbcbff5bf	-0.02343261
235	0xbcf326b5	-0.029681543
236	0x3c8ebe85	0.017424831
237	0xbd66381a	-0.056205846
238	0xbdb60626	-0.088878915
239	0xbc0060a0	-0.007835537
240	0xbe270bfe	-0.16313168
241	0xbcf89f2f	-0.030349342
242	0xbc463adc	-0.012098994
243	0xbdd0499e	-0.10170291
244	0xbd2a489b	-0.04157315
245	0xbaedfa69	-0.0018156293
246	0x3dee7593	0.11643519
247	0x3d92881a	0.071548656
248	0xbc667bde	-0.014067618
249	0xbda34bb9	-0.07973427
250	0x3d6a41c1	0.057191614
251	0x3c2e4f29	0.01063899
252	0x3cff10e7	0.03113599
253	0x3dccc5b9	0.0999865
254	0x3cead1fb	0.02866458
255	0x3cd76bcb	0.026296517

decoder.2.bias f4 [16]
0	0xbd1a0c58	-0.03760943
1	0xbdf453c5	-0.1193004
2	0xbd4bf982	-0.049798496
3	0xbdfe737d	-0.124243714
4	0xbd7dc03d	-0.06195091
5	0xbbe02730	-0.006840609
6	0xbd8e37ea	-0.069442585
7	0xbc6274ad	-0.013821763
8	0xbd956bfe	-0.072959885
9	0xbdd4722b	-0.10373338
10	0x3a8df7e7	0.0010831327
11	0xbe31f9d0	-0.17380452
12	0xbe2b0a29	-0.16703095
13	0xbccab690	-0.024745256
14	0xbc7c71fd	-0.015408036
15	0xbd8b9b16	-0.0681669

decoder.4.weight f4 [16, 8, 5, 5]
0	0x3c4f2a36	0.012644341
1	0x3dcf3aa8	0.1011861
2	0x3caf1f59	0.021377252
3	0xbcb21d53	-0.021742499
4	0x3dc988d4	0.09840551
5	0x3d8b141b	0.06790944
6	0x3dbfbf62	0.09362675
7	0xbd037897	-0.032097425
8	0x3d99dd9e	0.07512973
9	0x3d0c4e9f	0.034254666
10	0x3d5ec555	0.05438741
11	0x3d8c66f3	0.068555735
12	0xbcb0ca7f	-0.021580933
13	0x3db0dc9e	0.086358294
14	0x3db37138	0.08761829
15	0xbc0a9d80	-0.0084604025
16	0x3d900fb2	0.07034244
17	0xbc1cbf05	-0.009567027
18	0xbca3cd3e	-0.019995328
19	0x3c7ad47c	0.015309449
20	0xbc38539d	-0.011250404
21	0x3db4ea64	0.08833769
22	0x3cf32393	0.029680049
23	0x3d141409	0.03615192
24	0x3baa77e2	0.0052022794
25	0x3d536bc8	0.05161646
26	0x3cc6b16d	0.024254525
27	0x3d4985d4	0.049199894
28	0x3d989f10	0.07452214
29	0x3ca95bce	0.020673659
30	0x3de3c1cf	0.111209504
31	0x3d94141e	0.072303995
32	0x3d8ad4a4	0.06778839
33	0x3de0a726	0.10969381
34	0x3cd24bb5	0.025670866
35	0x3d5a8372	0.053348012
36	0x3bb0b51a	0.0053926827
37	0xbca27a0a	-0.019833583
38	0xbcb5fcdc	-0.0222153
39	0xbca2279c	-0.019794278
40	0x3cc70c44	0.02429784
41	0xbd079921	-0.03310502
42	0x3d68069e	0.056646936
43	0xbd0191d2	-0.031633206
44	0x3ce13b7b	0.027494183
45	0x3d0276ce	0.031851582
46	0x3d5e2fbb	0.054244738
47	0x3cf2c88c	0.029636644
48	0x3c9ad76d	0.018901551
49	0x3d3c2041	0.045929197
50	0x3d035b25	0.032069344
51	0x3cc09f33	0.023513412
52	0xbd591f1d	-0.053008188
53	0x3d01b648	0.031667978
54	0x3d2b991b	0.04189406
55	0x3ce7da90	0.02830246
56	0xbc5507f2	-0.013002383
57	0x3b576c7a	0.0032871054
58	0x3d985187	0.07437425
59	0x3d925892	0.071458
60	0xbb9fe268	-0.0048792847
61	0xbcbc16dd	-0.02296012
62	0xbd141c4a	-0.03615979
63	0xbc030e1d	-0.00799897
64	0xbd3d28ee	-0.04618161
65	0xbc2badf4	-0.010478485
66	0xbc6b2509	-0.014352092
67	0xbc81f82a	-0.015865404
68	0x3d6716d0	0.05641824
69	0xbd90e626	-0.07075147
70	0xbce99a08	-0.02851583
71	0x3d7e7ae2	0.06212891
72	0xbd86284e	-0.06550656
73	0xbd949a8e	-0.072560415
74	0x3d57bd76	0.05267092
75	0x3d7eaa42	0.06217409
76	0xbcddafb7	-0.027061326
77	0x3d7265a1	0.059178952
78	0x3c815e85	0.01579214
79	0x3d089c86	0.033352397
80	0x3d10ff45	0.035399694
81	0xbc391004	-0.011295322
82	0x3c6361f9	0.013878339
83	0xbd13b2e2	-0.036059268
84	0x3b51dc28	0.0032022092
85	0xbc5cddc4	-0.013480607
86	0xbd1e5327	-0.03865352
87	0x3bc88c00	0.006120205
88	0x3cc512b2	0.024056766
89	0x3d21e01e	0.039520375
90	0x3bc80af1	0.00610482
91	0x3c9c4763	0.019077009
92	0x3c18683f	0.009302198
93	0x3cfdf216	0.030999225
94	0xbd0432e3	-0.03227509
95	0xbcbfcb5a	-0.023412395
96	0xbc1de3ef	-0.009636863
97	0x3d35bd96	0.044370256
98	0x3d5457a9	0.05184141
99	0x3d4423c4	0.04788567
100	0xbd25be3e	-0.040464632
101	0x3cd4b11f	0.025963364
102	0x3d926523	0.071481965
103	0x3d8ac509	0.06775863
104	0xbcdf67df	-0.02727121
105	0xbc9b9634	-0.01899252
106	0xbc9e9d77	-0.019362194
107	0xbccce0d4	-0.02500955
108	0x3cccbb45	0.02499164
109	0x3d590f40	0.05299306
110	0xbc646497	-0.013939998
111	0x3dbff977	0.093737535
112	0x3cc9b2d5	0.024621407
113	0xbc806582	-0.015673403
114	0xbcd089c5	-0.025456319
115	0x3cc5048c	0.02405002
116	0xbb63056d	-0.0034640685
117	0x3d5bdeb6	0.05367919
118	0xba1488a2	-0.0005666112
119	0x3d5f896d	0.05457442
120	0x3d033bd9	0.032039497
121	0x3be7fbed	0.0070795924
122	0x3d854435	0.0650715
123	0x3d7e2161	0.06204355
124	0x3d611648	0.05495289
125	0x3d808a30	0.06276357
126	0x3cca45a2	0.024691407
127	0x3da591ec	0.08084473
128	0x3d5d7730	0.054068744
129	0xbc8f1ff6	-0.017471295
130	0x3c0ac6cb	0.0084702475
131	0x3c4ed739	0.012624555
132	0x3c3a4a32	0.011370229
133	0x3d4f937a	0.050677754
134	0x3dc9519f	0.09830021
135	0x3cd614e4	0.026133008
136	0x3d8326ab	0.0640386
137	0x3d1ef9a0	0.03881228
138	0x3d620a16	0.0551854
139	0x3ab09174	0.0013471083
140	0x3d353d79	0.044248078
141	0x3ce14c62	0.027502242
142	0x3d8c207a	0.06842132
143	0x3db65396	0.089026615
144	0x3cba4960	0.022740066
145	0x3d7a7188	0.061143428
146	0x3d59ecc6	0.05320432
147	0x3b7f9cd2	0.0039003384
148	0xbc92ae60	-0.017905414
149	0xbb15f520	-0.0022881702
150	0x3c48c79a	0.01225462
151	0x3c4b92b4	0.0124251135
152	0x3d453a46	0.048151277
153	0xb97d5df9	-0.00024162968
154	0x3bcc2705	0.0062302374
155	0x3d7f0c46	0.062267564
156	0x3cf3b285	0.02974821
157	0x3d09333b	0.033496123
158	0x3da79cb3	0.08184185
159	0x3dce9ead	0.10088859
160	0xbc51d4d5	-0.012807091
161	0x3dc11f4a	0.09429796
162	0xbd2bf8ea	-0.04198543
163	0xbc9b02b8	-0.018922195
164	0x3ddac121	0.10681368
165	0x3d6d3b7a	0.05791805
166	0xbbaa1c53	-0.005191365
167	0x3b877e27	0.0041349116
168	0xbd1f9085	-0.038956184
169	0x3da7b6a4	0.08189133
170	0x3caf57ff	0.021404264
171	0xbc93e910	-0.018055469
172	0x3cb649a3	0.02225191
173	0x3d1f655d	0.038915027
174	0x3d655ac9	0.055994783
175	0x3c992075	0.018692235
176	0xbc7c7323	-0.01540831
177	0x3d60ecc6	0.054913305
178	0x3d1c26e1	0.038123015
179	0x3c8779e8	0.016537622
180	0x3ce6b88c	0.02816417
181	0x3cd0cd84	0.025488622
182	0x3d6be9aa	0.057595886
183	0x3dd7432a	0.105108574
184	0x3d5930c3	0.05302502
185	0xbd83498b	-0.064105116
186	0xbd694620	-0.056951642
187	0x3d749b1b	0.059718233
188	0xbc0d6fb1	-0.008632586
189	0xbcb32f58	-0.021873161
190	0x3d929518	0.071573436
191	0xbcbc2464	-0.022966571
192	0x3d1a0951	0.03760654
193	0x3d861f35	0.06548921
194	0xbcc2c262	-0.02377433
195	0x3d224808	0.039619476
196	0x3d9e474f	0.07728445
197	0xbb861c42	-0.004092724
198	0xbb3de498	-0.0028975364
199	0x3d5f213c	0.054475054
200	0x3d27876f	0.040900644
201	0xbc21e62f	-0.00988154
202	0x3c9bce13	0.019019162
203	0xbd3a7410	-0.045520842
204	0xbd95ead2	-0.07320179
205	0xbd00cc9b	-0.031445127
206	0xbd1e87c1	-0.038703684
207	0x3da4f1d8	0.080539405
208	0xbd787668	-0.060659796
209	0xbd7a8476	-0.06116148
210	0xbb5dce90	-0.0033845045
211	0xbd2f0b56	-0.04273542
212	0xbbbb00d4	-0.005706886
213	0x3d0345b7	0.032048907
214	0xbd4455da	-0.047933437
215	0x3cb3b7e8	0.02193828
216	0xbda9e4c7	-0.08295589
217	0xbbc0e355	-0.005886475
218	0xbdd35596	-0.103190586
219	0xbdceb591	-0.10093225
220	0xbd865f88	-0.0656119
221	0x3d429fdd	0.04751574
222	0xbd4f3dca	-0.050596036
223	0xbd8f764a	-0.07004984
224	0xbd571227	-0.052507546
225	0x3e0ec647	0.13942824
226	0x3da6ba53	0.08141007
227	0x3d4e2744	0.050330415
228	0x3c91aeb3	0.017783498
229	0x3d00dc9e	0.031460397
230	0x3ce3bfb7	0.027801378
231	0x3cd88b3f	0.026433585
232	0x3dc3f7b0	0.09568727
233	0x3de2e216	0.11078279
234	0x3dae917b	0.08523842
235	0x3e205111	0.15655924
236	0x3e0a4300	0.13502121
237	0x3d0a3814	0.033744887
238	0x3e088856	0.13333258
239	0x3b31d997	0.002713775
240	0x3dd3050f	0.10303699
241	0x3d844205	0.06457905
242	0x3d51632f	0.05111998
243	0x3d4b233a	0.04959414
244	0x3dc73764	0.09727362
245	0x3db8ecb8	0.090295255
246	0x3dde9d08	0.10869795
247	0x3daf024f	0.08545362
248	0x3e182f88	0.14861882
249	0x3dc2408d	0.09484968
250	0x3d92b98d	0.07164297
251	0x3d8261b0	0.06366289
252	0xbbc3dbf5	-0.0059771487
253	0xbc9b3cc5	-0.018949876
254	0x3d311fa4	0.043243065
255	0xbbc8305c	-0.0061092805

decoder.4.bias f4 [8]
0	0xbd232c8e	-0.039837413
1	0xbe38be17	-0.18041264
2	0xba247e81	-0.0006274954
3	0xbb49f0a3	-0.0030813597
4	0xbc7615bd	-0.015019831
5	0xbe14e97b	-0.1454219
6	0xbcc85478	-0.02445434
7	0xbdc80bfd	-0.097679116

decoder.6.weight f4 [8, 300, 6, 6]
0	0xbaf3692e	-0.0018570775
1	0xbbb23e34	-0.005439544
2	0xbb8a16db	-0.0042141504
3	0xbb698519	-0.003563231
4	0xbb8c3a5c	-0.004279418
5	0xbb48ca7f	-0.0030638275
6	0x3bbda46c	0.005787423
7	0x3b04528e	0.0020190808
8	0x3a7d6f22	0.0009667744
9	0x3bca4012	0.0061721886
10	0x3b511db6	0.0031908578
11	0x3a683a70	0.00088588055
12	0x3aeb497d	0.0017950978
13	0xbbe2517d	-0.006906687
14	0xbb4c3116	-0.0031157187
15	0x3a7e1731	0.0009692787
16	0x39f11724	0.00045984343
17	0xbb399392	-0.0028316719
18	0xbb8c59a7	-0.0042831483
19	0xba9668df	-0.0011475346
20	0xbb80b3d9	-0.0039276895
21	0x3afab8fc	0.0019128616
22	0xbb88b7c5	-0.0041722977
23	0x3ae91d23	0.0017785173
24	0xbb1ae0c3	-0.0023632504
25	0xbb273238	-0.002551211
26	0xbba58eb7	-0.0050524133
27	0xbad015e7	-0.0015875668
28	0xbb8c77cf	-0.0042867432
29	0xbab9112d	-0.0014119499
30	0xbc0eaa00	-0.008707523
31	0xbc496fdc	-0.012294736
32	0xbc19fed5	-0.009399136
33	0xbc2a0dcc	-0.010379266
34	0xbc7f0e8d	-0.015567434
35	0xbc689464	-0.014195535
36	0x3d03d93b	0.03218959
37	0x3cfe27d6	0.031024855
38	0x3d0ff316	0.035143934
39	0x3d0cdff9	0.034393284
40	0x3d0aa7e5	0.033851523
41	0x3d0a7ce6	0.03381052
42	0x3d2867e7	0.041114714
43	0x3d1da3f3	0.038486432
44	0x3d1c9d73	0.038236093
45	0x3d32640c	0.043552443
46	0x3d38d367	0.045123484
47	0x3d167193	0.036729407
48	0x3d061f58	0.032744735
49	0x3cf0e5b3	0.029406404
50	0x3d1665c7	0.036718156
51	0x3d14a8c9	0.03629378
52	0x3d1b3cba	0.03789971
53	0x3ccf236e	0.025285449
54	0x3cfec9f2	0.031102154
55	0x3cee47dc	0.029087
56	0x3ceca6c7	0.02888812
57	0x3d078101	0.033082012
58	0x3d1172c6	0.035509847
59	0x3d00cf09	0.031447444
60	0x3d29bb9b	0.04143868
61	0x3d0cd917	0.03438672
62	0x3d1dade1	0.038495902
63	0x3d299e68	0.041410834
64	0x3d1d602c	0.038421795
65	0x3d0bb967	0.03411236
66	0x3cecee83	0.028922325
67	0x3cf539d6	0.029934805
68	0x3cf93d58	0.030424759
69	0x3d059d72	0.032620855
70	0x3ce3c582	0.02780414
71	0x3cefb787	0.029262317
72	0x3c8c5116	0.017128509
73	0x3cbee825	0.023304055
74	0x3c97b0ad	0.018516863
75	0x3c9f9301	0.019479277
76	0x3ca16308	0.019700542
77	0x3cd42cd3	0.02590028
78	0x3c83ae55	0.016074339
79	0x3cb4894a	0.02203812
80	0x3c5ecd5e	0.013598768
81	0x3c94c62c	0.018160902
82	0x3ca176b1	0.019709917
83	0x3cbafcbf	0.022825597
84	0x3c78c83f	0.015184461
85	0x3caf6116	0.021408599
86	0x3c822477	0.015886528
87	0x3c9ba7e6	0.019000959
88	0x3c9d9ae3	0.019238895
89	0x3c9e6841	0.019336822
90	0x3c635512	0.013875263
91	0x3cac9f05	0.02107192
92	0x3c687f58	0.014190517
93	0x3c905cd7	0.017622394
94	0x3c7ff177	0.015621535
95	0x3c88b8af	0.016689627
96	0x3c916724	0.017749377
97	0x3cb03af3	0.021512484
98	0x3cbd1fd1	0.02308646
99	0x3ca7062d	0.020388687
100	0x3c8eff0a	0.017455596
101	0x3c9ac89f	0.018894492
102	0x3c85382d	0.016262138
103	0x3cbd6783	0.023120647
104	0x3cb39b09	0.021924512
105	0x3c9e8d89	0.019354599
106	0x3c8740f0	0.016510457
107	0x3c930e19	0.017951058
108	0xbbcd85ef	-0.0062720696
109	0xbc31daf0	-0.010855421
110	0xbc147eec	-0.009063464
111	0xba94c804	-0.0011351113
112	0xbbfa505b	-0.0076389736
113	0xbabf0a0a	-0.0014575135
114	0x3a8bbe6b	0.0010661607
115	0xbb79d781	-0.0038122835
116	0xb979c5da	-0.00023820196
117	0x3bb6cd92	0.005578705
118	0xbb8648e7	-0.004098046
119	0x39ccf8ea	0.00039095368
120	0xbaed6376	-0.0018111307
121	0xbbda798f	-0.006667323
122	0xbb90ba90	-0.0044167712
123	0xbac68ce7	-0.0015148193
124	0xbb199c07	-0.0023438947
125	0xbbc11b55	-0.005893151
126	0xbab49406	-0.0013777025
127	0xbbf475c5	-0.0074603283
128	0xbba32195	-0.0049783685
129	0xbb2c79be	-0.0026317681
130	0xbbd66f33	-0.0065440177
131	0x3a10ba50	0.0005520927
132	0xbb0f3208	-0.002184989
133	0xbbfcc5e5	-0.0077140206
134	0xbb00a070	-0.0019626878
135	0xbbc62f2d	-0.0060481043
136	0xbba453c6	-0.0050148694
137	0xbc038e80	-0.00802958
138	0xbc0d9506	-0.008641487
139	0xbc165589	-0.009175667
140	0xbc5f1e20	-0.013618022
141	0xbc113eb9	-0.008865052
142	0xbc59d1d2	-0.013294654
143	0xbc1f749e	-0.009732394
144	0x3d0ea33f	0.034823652
145	0x3ce21eee	0.027602639
146	0x3d19075a	0.037360527
147	0x3d13798b	0.036004584
148	0x3cf91cec	0.030409299
149	0x3d0ab957	0.03386816
150	0x3d32a3d1	0.04361326
151	0x3d291b97	0.041286077
152	0x3d2cea4b	0.042215627
153	0x3d332d23	0.043744218
154	0x3d3f23a6	0.046664856
155	0x3d1174b7	0.0355117
156	0x3d1c8bbe	0.038219206
157	0x3d03a3e9	0.03213874
158	0x3d0090bb	0.031388026
159	0x3d007cb1	0.031368915
160	0x3d0a9ebf	0.0338428
161	0x3d101a4e	0.035181336
162	0x3d059146	0.032609247
163	0x3d0b82e3	0.03406037
164	0x3d09c1cd	0.03363209
165	0x3d139af4	0.036036447
166	0x3d0a4196	0.033753954
167	0x3cc8ede8	0.024527505
168	0x3d2860a6	0.041107796
169	0x3d1b3dc6	0.03790071
170	0x3d34fd0f	0.044186648
171	0x3d2a92a5	0.041643757
172	0x3d24e327	0.04025569
173	0x3d12015e	0.035645835
174	0x3cf245c1	0.029574277
175	0x3cd8ff80	0.02648902
176	0x3cf198c0	0.029491782
177	0x3d1698c1	0.03676677
178	0x3ce71c2c	0.028211676
179	0x3cfb2699	0.030658053
180	0x3c97bd8b	0.018522998
181	0x3cb4b1c8	0.022057429
182	0x3c95c8b8	0.018284187
183	0x3cb5316e	0.022118296
184	0x3caad12a	0.02085169
185	0x3ca537f2	0.020168278
186	0x3c76e456	0.015069088
187	0x3ca5c6a9	0.02023633
188	0x3c7e9568	0.015538551
189	0x3c8b05cb	0.016970536
190	0x3c98c72b	0.018649658
191	0x3cbb5e60	0.02287215
192	0x3c795f35	0.015220453
193	0x3ca56fbb	0.020194879
194	0x3c8764d6	0.016527575
195	0x3c8aed21	0.016958775
196	0x3cac1ea2	0.0210107
197	0x3cac8e51	0.021063956
198	0x3c5aa29e	0.013344435
199	0x3cb5b70f	0.022182016
200	0x3ca022e0	0.01954788
201	0x3c929cda	0.017897058
202	0x3c9b2051	0.018936308
203	0x3c8a8213	0.016907727
204	0x3ca5d16e	0.020241465
205	0x3ca38ef7	0.019965632
206	0x3cbd4f52	0.023109112
207	0x3cb0e5db	0.021593979
208	0x3c80379a	0.015651513
209	0x3c9657b6	0.01835237
210	0x3ca459a6	0.020062279
211	0x3cae79d2	0.021298323
212	0x3cb0d4b5	0.021585802
213	0x3cbf1dc2	0.02332962
214	0x3c9f146d	0.01941892
215	0x3c9c59a0	0.019085705
216	0xbc07b7c8	-0.008283563
217	0xbc1dd223	-0.00963262
218	0xbbfc79d4	-0.0077049527
219	0xbacc21d2	-0.0015574044
220	0xbc1cc0f1	-0.009567485
221	0xbbdc3619	-0.006720316
222	0x3abe8ec6	0.0014538399
223	0xbb4670e4	-0.003027969
224	0xb9c339c0	-0.00037236325
225	0x3b952e16	0.004552613
226	0x3a948fac	0.0011334321
227	0x3aad7380	0.0013233274
228	0xbbb0d99d	-0.0053970353
229	0xbb216091	-0.0024624208
230	0xb9eb6bd8	-0.00044903043
231	0x3b685e2a	0.0035456517
232	0xbb9b744a	-0.0047440873
233	0x38b88354	8.7982655e-05
234	0xbb933c98	-0.0044933073
235	0xbb89c773	-0.0042046844
236	0xbb834755	-0.004006306
237	0xbb3c3fe7	-0.0028724612
238	0xbb398465	-0.0028307673
239	0x3aae386f	0.0013291965
240	0xba845b56	-0.0010098021
241	0xbb5d532c	-0.0033771498
242	0xbb1537f3	-0.0022768944
243	0xba80d47b	-0.0009828949
244	0xb9c6bc30	-0.00037905714
245	0xbb34b1e0	-0.0027571842
246	0xbbbef23b	-0.005827216
247	0xbc6c0233	-0.014404821
248	0xbc0ed8e3	-0.008718702
249	0xbc69610a	-0.014244327
250	0xbc5bda37	-0.013418726
251	0xbc4c5478	-0.012471311
252	0x3d04c80a	0.032417335
253	0x3cf0e3fb	0.029405585
254	0x3d0971f4	0.03355594
255	0x3d125cdf	0.0357331
